CNNModel(
  (song_embedding): Embedding(3706389, 30, padding_idx=0)
  (history_embed): Embedding(
    (conv1d): Initialized_Conv1d(
      (out): Conv1d(71, 128, kernel_size=(1,), stride=(1,), bias=False)
    )
    (high): Highway(
      (linear): ModuleList(
        (0): Initialized_Conv1d(
          (out): Conv1d(128, 128, kernel_size=(1,), stride=(1,))
        )
        (1): Initialized_Conv1d(
          (out): Conv1d(128, 128, kernel_size=(1,), stride=(1,))
        )
      )
      (gate): ModuleList(
        (0): Initialized_Conv1d(
          (out): Conv1d(128, 128, kernel_size=(1,), stride=(1,))
        )
        (1): Initialized_Conv1d(
          (out): Conv1d(128, 128, kernel_size=(1,), stride=(1,))
        )
      )
    )
  )
  (predict_embed): Embedding(
    (conv1d): Initialized_Conv1d(
      (out): Conv1d(30, 128, kernel_size=(1,), stride=(1,), bias=False)
    )
    (high): Highway(
      (linear): ModuleList(
        (0): Initialized_Conv1d(
          (out): Conv1d(128, 128, kernel_size=(1,), stride=(1,))
        )
        (1): Initialized_Conv1d(
          (out): Conv1d(128, 128, kernel_size=(1,), stride=(1,))
        )
      )
      (gate): ModuleList(
        (0): Initialized_Conv1d(
          (out): Conv1d(128, 128, kernel_size=(1,), stride=(1,))
        )
        (1): Initialized_Conv1d(
          (out): Conv1d(128, 128, kernel_size=(1,), stride=(1,))
        )
      )
    )
  )
  (history_encoder): EncoderBlock(
    (convs): ModuleList(
      (0): DepthwiseSeparableConv(
        (depthwise_conv): Conv1d(128, 128, kernel_size=(3,), stride=(1,), padding=(1,), groups=128, bias=False)
        (pointwise_conv): Conv1d(128, 128, kernel_size=(1,), stride=(1,))
      )
      (1): DepthwiseSeparableConv(
        (depthwise_conv): Conv1d(128, 128, kernel_size=(3,), stride=(1,), padding=(1,), groups=128, bias=False)
        (pointwise_conv): Conv1d(128, 128, kernel_size=(1,), stride=(1,))
      )
      (2): DepthwiseSeparableConv(
        (depthwise_conv): Conv1d(128, 128, kernel_size=(3,), stride=(1,), padding=(1,), groups=128, bias=False)
        (pointwise_conv): Conv1d(128, 128, kernel_size=(1,), stride=(1,))
      )
      (3): DepthwiseSeparableConv(
        (depthwise_conv): Conv1d(128, 128, kernel_size=(3,), stride=(1,), padding=(1,), groups=128, bias=False)
        (pointwise_conv): Conv1d(128, 128, kernel_size=(1,), stride=(1,))
      )
    )
    (self_att): SelfAttention(
      (mem_conv): Initialized_Conv1d(
        (out): Conv1d(128, 256, kernel_size=(1,), stride=(1,), bias=False)
      )
      (query_conv): Initialized_Conv1d(
        (out): Conv1d(128, 128, kernel_size=(1,), stride=(1,), bias=False)
      )
    )
    (FFN_1): Initialized_Conv1d(
      (out): Conv1d(128, 128, kernel_size=(1,), stride=(1,))
    )
    (FFN_2): Initialized_Conv1d(
      (out): Conv1d(128, 128, kernel_size=(1,), stride=(1,))
    )
    (norm_C): ModuleList(
      (0): LayerNorm(torch.Size([128]), eps=1e-05, elementwise_affine=True)
      (1): LayerNorm(torch.Size([128]), eps=1e-05, elementwise_affine=True)
      (2): LayerNorm(torch.Size([128]), eps=1e-05, elementwise_affine=True)
      (3): LayerNorm(torch.Size([128]), eps=1e-05, elementwise_affine=True)
    )
    (norm_1): LayerNorm(torch.Size([128]), eps=1e-05, elementwise_affine=True)
    (norm_2): LayerNorm(torch.Size([128]), eps=1e-05, elementwise_affine=True)
  )
  (predict_encoder): EncoderBlock(
    (convs): ModuleList(
      (0): DepthwiseSeparableConv(
        (depthwise_conv): Conv1d(128, 128, kernel_size=(3,), stride=(1,), padding=(1,), groups=128, bias=False)
        (pointwise_conv): Conv1d(128, 128, kernel_size=(1,), stride=(1,))
      )
      (1): DepthwiseSeparableConv(
        (depthwise_conv): Conv1d(128, 128, kernel_size=(3,), stride=(1,), padding=(1,), groups=128, bias=False)
        (pointwise_conv): Conv1d(128, 128, kernel_size=(1,), stride=(1,))
      )
      (2): DepthwiseSeparableConv(
        (depthwise_conv): Conv1d(128, 128, kernel_size=(3,), stride=(1,), padding=(1,), groups=128, bias=False)
        (pointwise_conv): Conv1d(128, 128, kernel_size=(1,), stride=(1,))
      )
      (3): DepthwiseSeparableConv(
        (depthwise_conv): Conv1d(128, 128, kernel_size=(3,), stride=(1,), padding=(1,), groups=128, bias=False)
        (pointwise_conv): Conv1d(128, 128, kernel_size=(1,), stride=(1,))
      )
    )
    (self_att): SelfAttention(
      (mem_conv): Initialized_Conv1d(
        (out): Conv1d(128, 256, kernel_size=(1,), stride=(1,), bias=False)
      )
      (query_conv): Initialized_Conv1d(
        (out): Conv1d(128, 128, kernel_size=(1,), stride=(1,), bias=False)
      )
    )
    (FFN_1): Initialized_Conv1d(
      (out): Conv1d(128, 128, kernel_size=(1,), stride=(1,))
    )
    (FFN_2): Initialized_Conv1d(
      (out): Conv1d(128, 128, kernel_size=(1,), stride=(1,))
    )
    (norm_C): ModuleList(
      (0): LayerNorm(torch.Size([128]), eps=1e-05, elementwise_affine=True)
      (1): LayerNorm(torch.Size([128]), eps=1e-05, elementwise_affine=True)
      (2): LayerNorm(torch.Size([128]), eps=1e-05, elementwise_affine=True)
      (3): LayerNorm(torch.Size([128]), eps=1e-05, elementwise_affine=True)
    )
    (norm_1): LayerNorm(torch.Size([128]), eps=1e-05, elementwise_affine=True)
    (norm_2): LayerNorm(torch.Size([128]), eps=1e-05, elementwise_affine=True)
  )
  (model_enc_blks): ModuleList(
    (0): EncoderBlock(
      (convs): ModuleList(
        (0): DepthwiseSeparableConv(
          (depthwise_conv): Conv1d(128, 128, kernel_size=(3,), stride=(1,), padding=(1,), groups=128, bias=False)
          (pointwise_conv): Conv1d(128, 128, kernel_size=(1,), stride=(1,))
        )
        (1): DepthwiseSeparableConv(
          (depthwise_conv): Conv1d(128, 128, kernel_size=(3,), stride=(1,), padding=(1,), groups=128, bias=False)
          (pointwise_conv): Conv1d(128, 128, kernel_size=(1,), stride=(1,))
        )
      )
      (self_att): SelfAttention(
        (mem_conv): Initialized_Conv1d(
          (out): Conv1d(128, 256, kernel_size=(1,), stride=(1,), bias=False)
        )
        (query_conv): Initialized_Conv1d(
          (out): Conv1d(128, 128, kernel_size=(1,), stride=(1,), bias=False)
        )
      )
      (FFN_1): Initialized_Conv1d(
        (out): Conv1d(128, 128, kernel_size=(1,), stride=(1,))
      )
      (FFN_2): Initialized_Conv1d(
        (out): Conv1d(128, 128, kernel_size=(1,), stride=(1,))
      )
      (norm_C): ModuleList(
        (0): LayerNorm(torch.Size([128]), eps=1e-05, elementwise_affine=True)
        (1): LayerNorm(torch.Size([128]), eps=1e-05, elementwise_affine=True)
      )
      (norm_1): LayerNorm(torch.Size([128]), eps=1e-05, elementwise_affine=True)
      (norm_2): LayerNorm(torch.Size([128]), eps=1e-05, elementwise_affine=True)
    )
    (1): EncoderBlock(
      (convs): ModuleList(
        (0): DepthwiseSeparableConv(
          (depthwise_conv): Conv1d(128, 128, kernel_size=(3,), stride=(1,), padding=(1,), groups=128, bias=False)
          (pointwise_conv): Conv1d(128, 128, kernel_size=(1,), stride=(1,))
        )
        (1): DepthwiseSeparableConv(
          (depthwise_conv): Conv1d(128, 128, kernel_size=(3,), stride=(1,), padding=(1,), groups=128, bias=False)
          (pointwise_conv): Conv1d(128, 128, kernel_size=(1,), stride=(1,))
        )
      )
      (self_att): SelfAttention(
        (mem_conv): Initialized_Conv1d(
          (out): Conv1d(128, 256, kernel_size=(1,), stride=(1,), bias=False)
        )
        (query_conv): Initialized_Conv1d(
          (out): Conv1d(128, 128, kernel_size=(1,), stride=(1,), bias=False)
        )
      )
      (FFN_1): Initialized_Conv1d(
        (out): Conv1d(128, 128, kernel_size=(1,), stride=(1,))
      )
      (FFN_2): Initialized_Conv1d(
        (out): Conv1d(128, 128, kernel_size=(1,), stride=(1,))
      )
      (norm_C): ModuleList(
        (0): LayerNorm(torch.Size([128]), eps=1e-05, elementwise_affine=True)
        (1): LayerNorm(torch.Size([128]), eps=1e-05, elementwise_affine=True)
      )
      (norm_1): LayerNorm(torch.Size([128]), eps=1e-05, elementwise_affine=True)
      (norm_2): LayerNorm(torch.Size([128]), eps=1e-05, elementwise_affine=True)
    )
    (2): EncoderBlock(
      (convs): ModuleList(
        (0): DepthwiseSeparableConv(
          (depthwise_conv): Conv1d(128, 128, kernel_size=(3,), stride=(1,), padding=(1,), groups=128, bias=False)
          (pointwise_conv): Conv1d(128, 128, kernel_size=(1,), stride=(1,))
        )
        (1): DepthwiseSeparableConv(
          (depthwise_conv): Conv1d(128, 128, kernel_size=(3,), stride=(1,), padding=(1,), groups=128, bias=False)
          (pointwise_conv): Conv1d(128, 128, kernel_size=(1,), stride=(1,))
        )
      )
      (self_att): SelfAttention(
        (mem_conv): Initialized_Conv1d(
          (out): Conv1d(128, 256, kernel_size=(1,), stride=(1,), bias=False)
        )
        (query_conv): Initialized_Conv1d(
          (out): Conv1d(128, 128, kernel_size=(1,), stride=(1,), bias=False)
        )
      )
      (FFN_1): Initialized_Conv1d(
        (out): Conv1d(128, 128, kernel_size=(1,), stride=(1,))
      )
      (FFN_2): Initialized_Conv1d(
        (out): Conv1d(128, 128, kernel_size=(1,), stride=(1,))
      )
      (norm_C): ModuleList(
        (0): LayerNorm(torch.Size([128]), eps=1e-05, elementwise_affine=True)
        (1): LayerNorm(torch.Size([128]), eps=1e-05, elementwise_affine=True)
      )
      (norm_1): LayerNorm(torch.Size([128]), eps=1e-05, elementwise_affine=True)
      (norm_2): LayerNorm(torch.Size([128]), eps=1e-05, elementwise_affine=True)
    )
    (3): EncoderBlock(
      (convs): ModuleList(
        (0): DepthwiseSeparableConv(
          (depthwise_conv): Conv1d(128, 128, kernel_size=(3,), stride=(1,), padding=(1,), groups=128, bias=False)
          (pointwise_conv): Conv1d(128, 128, kernel_size=(1,), stride=(1,))
        )
        (1): DepthwiseSeparableConv(
          (depthwise_conv): Conv1d(128, 128, kernel_size=(3,), stride=(1,), padding=(1,), groups=128, bias=False)
          (pointwise_conv): Conv1d(128, 128, kernel_size=(1,), stride=(1,))
        )
      )
      (self_att): SelfAttention(
        (mem_conv): Initialized_Conv1d(
          (out): Conv1d(128, 256, kernel_size=(1,), stride=(1,), bias=False)
        )
        (query_conv): Initialized_Conv1d(
          (out): Conv1d(128, 128, kernel_size=(1,), stride=(1,), bias=False)
        )
      )
      (FFN_1): Initialized_Conv1d(
        (out): Conv1d(128, 128, kernel_size=(1,), stride=(1,))
      )
      (FFN_2): Initialized_Conv1d(
        (out): Conv1d(128, 128, kernel_size=(1,), stride=(1,))
      )
      (norm_C): ModuleList(
        (0): LayerNorm(torch.Size([128]), eps=1e-05, elementwise_affine=True)
        (1): LayerNorm(torch.Size([128]), eps=1e-05, elementwise_affine=True)
      )
      (norm_1): LayerNorm(torch.Size([128]), eps=1e-05, elementwise_affine=True)
      (norm_2): LayerNorm(torch.Size([128]), eps=1e-05, elementwise_affine=True)
    )
    (4): EncoderBlock(
      (convs): ModuleList(
        (0): DepthwiseSeparableConv(
          (depthwise_conv): Conv1d(128, 128, kernel_size=(3,), stride=(1,), padding=(1,), groups=128, bias=False)
          (pointwise_conv): Conv1d(128, 128, kernel_size=(1,), stride=(1,))
        )
        (1): DepthwiseSeparableConv(
          (depthwise_conv): Conv1d(128, 128, kernel_size=(3,), stride=(1,), padding=(1,), groups=128, bias=False)
          (pointwise_conv): Conv1d(128, 128, kernel_size=(1,), stride=(1,))
        )
      )
      (self_att): SelfAttention(
        (mem_conv): Initialized_Conv1d(
          (out): Conv1d(128, 256, kernel_size=(1,), stride=(1,), bias=False)
        )
        (query_conv): Initialized_Conv1d(
          (out): Conv1d(128, 128, kernel_size=(1,), stride=(1,), bias=False)
        )
      )
      (FFN_1): Initialized_Conv1d(
        (out): Conv1d(128, 128, kernel_size=(1,), stride=(1,))
      )
      (FFN_2): Initialized_Conv1d(
        (out): Conv1d(128, 128, kernel_size=(1,), stride=(1,))
      )
      (norm_C): ModuleList(
        (0): LayerNorm(torch.Size([128]), eps=1e-05, elementwise_affine=True)
        (1): LayerNorm(torch.Size([128]), eps=1e-05, elementwise_affine=True)
      )
      (norm_1): LayerNorm(torch.Size([128]), eps=1e-05, elementwise_affine=True)
      (norm_2): LayerNorm(torch.Size([128]), eps=1e-05, elementwise_affine=True)
    )
  )
  (ff1): FeedForwardNetwork(
    (linear1): Linear(in_features=128, out_features=64, bias=True)
    (linear2): Linear(in_features=64, out_features=1, bias=True)
  )
)

EVAL ap: 0.4076599499016589 first_pred_acc: 0.5450020098786914
EVAL epoch: -1 test accuracy: 0.5164114680591521 loss: 0.7848103300228224
00:45: TRAIN epoch: 0 step: 3951 train accuracy: 0.6661047790208005 loss: 0.6162430409599455
